…
er' without a 'pyg-lib' installation is deprecated and will be removed soon. Please install 'pyg-lib' for accelerated neighborhood sampling
  warnings.warn(f"Using '{self.__class__.__name__}' without a "
2024-06-02 20:43:54,384 [INFO ] +---------------------------------+---------------------------------+----------------+----------+
| Layer                           | Input Shape                     | Output Shape   | #Param   |
|---------------------------------+---------------------------------+----------------+----------|
| PNA                             | [90, 1], [2, 2446], [2446, 4]   | [2446, 2]      | 28,917   |
| ├─(node_emb)Linear              | [90, 1]                         | [90, 20]       | 40       |
| ├─(edge_emb)Linear              | [2446, 4]                       | [2446, 20]     | 100      |
| ├─(convs)ModuleList             | --                              | --             | 24,320   |
| │    └─(0)PNAConv               | [90, 20], [2, 2446], [2446, 20] | [90, 20]       | 12,160   |
| │    └─(1)PNAConv               | [90, 20], [2, 2446], [2446, 20] | [90, 20]       | 12,160   |
| ├─(emlps)ModuleList             | --                              | --             | --       |
| ├─(batch_norms)ModuleList       | --                              | --             | 80       |
| │    └─(0)BatchNorm             | [90, 20]                        | [90, 20]       | 40       |
| │    │    └─(module)BatchNorm1d | [90, 20]                        | [90, 20]       | 40       |
| │    └─(1)BatchNorm             | [90, 20]                        | [90, 20]       | 40       |
| │    │    └─(module)BatchNorm1d | [90, 20]                        | [90, 20]       | 40       |
| ├─(mlp)Sequential               | [2446, 60]                      | [2446, 2]      | 4,377    |
| │    └─(0)Linear                | [2446, 60]                      | [2446, 50]     | 3,050    |
| │    └─(1)ReLU                  | [2446, 50]                      | [2446, 50]     | --       |
| │    └─(2)Dropout               | [2446, 50]                      | [2446, 50]     | --       |
| │    └─(3)Linear                | [2446, 50]                      | [2446, 25]     | 1,275    |
| │    └─(4)ReLU                  | [2446, 25]                      | [2446, 25]     | --       |
| │    └─(5)Dropout               | [2446, 25]                      | [2446, 25]     | --       |
| │    └─(6)Linear                | [2446, 25]                      | [2446, 2]      | 52       |
+---------------------------------+---------------------------------+----------------+----------+
2024-06-02 20:43:54,478 [INFO ] Train F1: 0.1825
2024-06-02 20:43:54,512 [INFO ] Validation F1: 0.1750
2024-06-02 20:43:54,513 [INFO ] Test F1: 0.2067
2024-06-02 20:43:54,545 [INFO ] Train F1: 0.2350
2024-06-02 20:43:54,592 [INFO ] Validation F1: 0.1729
2024-06-02 20:43:54,592 [INFO ] Test F1: 0.3043
…
