…
er' without a 'pyg-lib' installation is deprecated and will be removed soon. Please install 'pyg-lib' for accelerated neighborhood sampling
  warnings.warn(f"Using '{self.__class__.__name__}' without a "
2024-06-02 21:00:56,124 [INFO ] +---------------------------------+---------------------------------+----------------+----------+
| Layer                           | Input Shape                     | Output Shape   | #Param   |
|---------------------------------+---------------------------------+----------------+----------|
| PNA                             | [90, 1], [2, 2446], [2446, 9]   | [2446, 2]      | 29,017   |
| ├─(node_emb)Linear              | [90, 1]                         | [90, 20]       | 40       |
| ├─(edge_emb)Linear              | [2446, 9]                       | [2446, 20]     | 200      |
| ├─(convs)ModuleList             | --                              | --             | 24,320   |
| │    └─(0)PNAConv               | [90, 20], [2, 2446], [2446, 20] | [90, 20]       | 12,160   |
| │    └─(1)PNAConv               | [90, 20], [2, 2446], [2446, 20] | [90, 20]       | 12,160   |
| ├─(emlps)ModuleList             | --                              | --             | --       |
| ├─(batch_norms)ModuleList       | --                              | --             | 80       |
| │    └─(0)BatchNorm             | [90, 20]                        | [90, 20]       | 40       |
| │    │    └─(module)BatchNorm1d | [90, 20]                        | [90, 20]       | 40       |
| │    └─(1)BatchNorm             | [90, 20]                        | [90, 20]       | 40       |
| │    │    └─(module)BatchNorm1d | [90, 20]                        | [90, 20]       | 40       |
| ├─(mlp)Sequential               | [2446, 60]                      | [2446, 2]      | 4,377    |
| │    └─(0)Linear                | [2446, 60]                      | [2446, 50]     | 3,050    |
| │    └─(1)ReLU                  | [2446, 50]                      | [2446, 50]     | --       |
| │    └─(2)Dropout               | [2446, 50]                      | [2446, 50]     | --       |
| │    └─(3)Linear                | [2446, 50]                      | [2446, 25]     | 1,275    |
| │    └─(4)ReLU                  | [2446, 25]                      | [2446, 25]     | --       |
| │    └─(5)Dropout               | [2446, 25]                      | [2446, 25]     | --       |
| │    └─(6)Linear                | [2446, 25]                      | [2446, 2]      | 52       |
+---------------------------------+---------------------------------+----------------+----------+
2024-06-02 21:00:56,214 [INFO ] Train F1: 0.1508
2024-06-02 21:00:56,237 [INFO ] Validation F1: 0.1394
2024-06-02 21:00:56,237 [INFO ] Test F1: 0.1922
2024-06-02 21:00:56,256 [INFO ] Train F1: 0.1688
2024-06-02 21:00:56,280 [INFO ] Validation F1: 0.1152
2024-06-02 21:00:56,280 [INFO ] Test F1: 0.2244
…
